src/models/2.onnx (onnx, 549392 bytes, 20 tensors)

calibrator_x f4 [18]
00000000: a4ad 413d 0d06 823d abb1 823d 95bc 123e
00000010: 9886 143e 2471 183e fc9a 183e fad0 243e
00000020: 3b43 253e 616b 2c3e 3968 2e3e a37b 7a3e
00000030: 14bc 803e 6b3e 853e 6d9c 863e a91a c33e
00000040: d79a c93e 19ac cd3e
0.047284737 0.0634881 0.06381544 0.14329751 0.14504468 0.1488691 0.14902872 0.16095343
0.16138928 0.16837837 0.17031945 0.24461226 0.25143492 0.26024184 0.26291218 0.38106278
0.39375946 0.40170363

calibrator_y f4 [18]
00000000: 0000 0000 0000 0000 abaa aa3d abaa aa3d
00000010: abaa 2a3e abaa 2a3e 310c 433e 310c 433e
00000020: 0000 803e 0000 803e cdcc 8c3e cdcc 8c3e
00000030: abaa aa3e abaa aa3e 6edb 363f 6edb 363f
00000040: 0000 403f 0000 403f
0.0 0.0 0.083333336 0.083333336 0.16666667 0.16666667 0.1904762 0.1904762
0.25 0.25 0.275 0.275 0.33333334 0.33333334 0.71428573 0.71428573
0.75 0.75

calibrator_x1 f4 [22]
00000000: 20de 303d 6e4a 543d f4df 543d 7a89 8d3d
00000010: d3ea 8d3d 7056 b93d d49a ba3d 3cdd f33d
00000020: 8825 f43d 446d 183e 4aee 183e 2dba 3a3e
00000030: ca4b 3b3e dcb1 623e a9cc 623e a418 823e
00000040: 9fd4 833e 4fe7 a43e dcc7 ab3e 5f97 e03e
00000050: 6c7f e23e 4638 f93e
0.043180585 0.051828794 0.05197139 0.06910987 0.06929555 0.0904969 0.09111562 0.119074315
0.11921221 0.14885432 0.1493465 0.18235083 0.1829063 0.2213816 0.22148384 0.25409424
0.25748155 0.32207724 0.33550918 0.43865487 0.4423784 0.48675746

calibrator_y1 f4 [22]
00000000: 0000 0000 0000 0000 a10e 6a3d a10e 6a3d
00000010: 5eea c93d 5eea c93d 88c6 fa3d 88c6 fa3d
00000020: c10f fc3d c10f fc3d dd60 0a3e dd60 0a3e
00000030: e438 0e3e e438 0e3e 2549 123e 2549 123e
00000040: 2549 923e 2549 923e 721c 473f 721c 473f
00000050: 0000 803f 0000 803f
0.0 0.0 0.057142857 0.057142857 0.09859155 0.09859155 0.12244898 0.12244898
0.12307692 0.12307692 0.13513513 0.13513513 0.1388889 0.1388889 0.14285715 0.14285715
0.2857143 0.2857143 0.7777778 0.7777778 1.0 1.0

calibrator_x2 f4 [21]
00000000: 939d 443d 4507 993d 460a 993d a7ed a63d
00000010: 8d52 a73d 7d78 083e b77d 083e 5c2b 0f3e
00000020: a158 103e ff61 1f3e 16b3 223e c6ad 553e
00000030: 82e1 593e 8cf9 5b3e 2314 5e3e 0c2d 863e
00000040: e396 8f3e 0349 b73e e284 c33e f458 fb3e
00000050: 67db fe3e
0.048001837 0.0747209 0.07472663 0.08150797 0.08170042 0.13327213 0.13329206 0.13981384
0.14096309 0.15564726 0.15888628 0.2086707 0.2127743 0.21481913 0.21687369 0.26206243
0.28044805 0.3579789 0.3818732 0.49091303 0.49776766

calibrator_y2 f4 [21]
00000000: 0000 0000 0000 0000 3694 573d 3694 573d
00000010: fa82 be3d fa82 be3d 9a99 193e 9a99 193e
00000020: b5b4 343e b5b4 343e f1f0 703e f1f0 703e
00000030: 0000 803e 0000 803e 2549 923e 2549 923e
00000040: 0000 003f 0000 003f abaa 2a3f abaa 2a3f
00000050: 0000 803f
0.0 0.0 0.05263158 0.05263158 0.093023255 0.093023255 0.15 0.15
0.1764706 0.1764706 0.23529412 0.23529412 0.25 0.25 0.2857143 0.2857143
0.5 0.5 0.6666667 0.6666667 1.0

calibrator_x3 f4 [18]
00000000: db45 4b3d 1169 a13d bda3 a33d b321 ba3d
00000010: 857e ba3d f7a9 bf3d b56c c03d d319 fb3d
00000020: 5664 fb3d 436e 013e 288f 013e 09f9 3b3e
00000030: 737b 3d3e d1dd 803e 02ef 803e 7b04 a93e
00000040: a895 a93e c5c2 f23e
0.049627166 0.07881368 0.07990215 0.09088459 0.09106163 0.0935859 0.09395734 0.12260785
0.12274997 0.12639718 0.12652266 0.18356718 0.18504123 0.25169232 0.25182348 0.3301123
0.3312199 0.47414222

calibrator_y3 f4 [18]
00000000: 0000 0000 0000 0000 cb3d 0d3d cb3d 0d3d
00000010: 2549 923d 2549 923d 28af a13d 28af a13d
00000020: 398e e33d 398e e33d abaa ea3d abaa ea3d
00000030: 0000 803e 0000 803e 8c2e ba3e 8c2e ba3e
00000040: 9a99 193f 9a99 193f
0.0 0.0 0.03448276 0.03448276 0.071428575 0.071428575 0.078947365 0.078947365
0.11111111 0.11111111 0.114583336 0.114583336 0.25 0.25 0.36363637 0.36363637
0.6 0.6

calibrator_x4 f4 [18]
00000000: 2a82 533d cfeb 643d 16d9 653d 3adb b53d
00000010: 2e55 b73d 87fa c73d 961b ca3d 5ee6 0b3e
00000020: ed36 0c3e 765f 193e 8739 1a3e 099c 6c3e
00000030: d316 6f3e 3006 833e c862 833e 55b3 dd3e
00000040: 4a29 ec3e 548e ed3e
0.051637806 0.055888947 0.056115232 0.08879705 0.089517936 0.09764581 0.09868543 0.13662097
0.13692828 0.14977822 0.15061007 0.23106398 0.2334855 0.25590658 0.25661302 0.43300882
0.4612525 0.4639765

calibrator_y4 f4 [18]
00000000: 0000 0000 0000 0000 6611 1f3c 6611 1f3c
00000010: d989 9d3d d989 9d3d d39b de3d d39b de3d
00000020: 9a99 193e 9a99 193e 0000 903e 0000 903e
00000030: abaa aa3e abaa aa3e 0000 403f 0000 403f
00000040: 0000 803f 0000 803f
0.0 0.0 0.009708738 0.009708738 0.07692308 0.07692308 0.10869565 0.10869565
0.15 0.15 0.28125 0.28125 0.33333334 0.33333334 0.75 0.75
1.0 1.0

calibrator_x5 f4 [14]
00000000: fdd6 473d 73fd 5a3d 5766 5b3d 2a77 a93d
00000010: 5535 aa3d 8546 e93d 569f e93d 3b25 f03d
00000020: 9bd5 f03d c07d 483e 5d2a 493e 9f5d c13e
00000030: d73d c73e 973d f43e
0.048789013 0.053464364 0.053564396 0.08274682 0.083109535 0.11390404 0.11407344 0.11725851
0.11759492 0.1957922 0.19645067 0.3776674 0.38914368 0.4770324

calibrator_y5 f4 [14]
00000000: 0000 0000 0000 0000 8c2e ba3c 8c2e ba3c
00000010: 26b4 173d 26b4 173d 398e e33d 398e e33d
00000020: 138c 373e 138c 373e f98a af3e f98a af3e
00000030: 0000 803f 0000 803f
0.0 0.0 0.022727273 0.022727273 0.037037037 0.037037037 0.11111111 0.11111111
0.17924528 0.17924528 0.34285715 0.34285715 1.0 1.0

calibrator_x6 f4 [17]
00000000: 02dc 3c3d f65e 553d dd8b 553d 2663 af3d
00000010: 6dd0 af3d e948 c13d e755 c13d 2c73 0b3e
00000020: 8086 0b3e ce7f 153e 7db8 153e 5884 2c3e
00000030: d959 2d3e 6a7a b63e 8a91 b63e fd18 e13e
00000040: 9412 f13e
0.046108253 0.052092515 0.052135337 0.08563833 0.08584676 0.09437735 0.09440213 0.13618153
0.13625526 0.14599535 0.14621158 0.1684736 0.16928805 0.3564027 0.35657912 0.43964377
0.47084486

calibrator_y6 f4 [17]
00000000: 0000 0000 0000 0000 4211 0a3d 4211 0a3d
00000010: 0ad7 a33d 0ad7 a33d 9bb2 a63d 9bb2 a63d
00000020: 28af 213e 28af 213e c967 5d3e c967 5d3e
00000030: 38bd e93e 38bd e93e 0000 203f 0000 203f
00000040: 0000 803f
0.0 0.0 0.033707865 0.033707865 0.08 0.08 0.08139535 0.08139535
0.15789473 0.15789473 0.21621622 0.21621622 0.45652175 0.45652175 0.625 0.625
1.0

calibrator_x7 f4 [20]
00000000: 3774 523d 714e 733d 0257 743d af57 933d
00000010: 4e04 943d 6108 be3d 6766 be3d a932 093e
00000020: 97c0 093e 0587 143e 0c13 153e 83ae 243e
00000030: 752e 253e f665 533e f76b 533e a586 5f3e
00000040: 4be6 683e 7442 ce3e ee55 ea3e 1809 ff3e
0.051380362 0.05940098 0.05965329 0.07194459 0.072273836 0.09278942 0.092968754 0.13398232
0.13452373 0.14504631 0.14558047 0.16082196 0.16131003 0.20644364 0.20646654 0.21828707
0.227441 0.40285075 0.45768684 0.49811625

calibrator_y7 f4 [20]
00000000: 0000 0000 0000 0000 f3d8 0a3d f3d8 0a3d
00000010: abaa 2a3d abaa 2a3d 31b9 823d 31b9 823d
00000020: 2549 123e 2549 123e 0000 803e 0000 803e
00000030: 2549 923e 2549 923e abaa aa3e abaa aa3e
00000040: 0000 003f 0000 003f 0000 803f 0000 803f
0.0 0.0 0.033898305 0.033898305 0.041666668 0.041666668 0.06382979 0.06382979
0.14285715 0.14285715 0.25 0.25 0.2857143 0.2857143 0.33333334 0.33333334
0.5 0.5 1.0 1.0

calibrator_x8 f4 [16]
00000000: 60af 413d 9ce1 6b3d 6f9a 6c3d 4b06 a43d
00000010: 509a a43d a5b0 af3d d98a b03d e3ec dd3d
00000020: 91b5 de3d bb65 023e d5a6 023e 71ef 193e
00000030: f109 1a3e 88a5 663e 369c 6a3e d2f7 f53e
0.04728639 0.057588205 0.057764467 0.08009013 0.08037245 0.08578614 0.08620233 0.10836198
0.10874475 0.1273412 0.12758954 0.15032746 0.15042855 0.22524083 0.22911152 0.48040634

calibrator_y8 f4 [16]
00000000: 0000 0000 0000 0000 e890 9a3c e890 9a3c
00000010: 3694 573d 3694 573d 3548 833d 3548 833d
00000020: 3dcf f33d 3dcf f33d 3f87 543e 3f87 543e
00000030: f98a af3e f98a af3e 8a9d d83e 8a9d d83e
0.0 0.0 0.018867925 0.018867925 0.05263158 0.05263158 0.06410257 0.06410257
0.11904762 0.11904762 0.20754717 0.20754717 0.34285715 0.34285715 0.42307693 0.42307693

calibrator_x9 f4 [24]
00000000: 8bf2 5d3d dd81 d73d b29b d73d 913f e83d
00000010: 229c e93d f263 0a3e 2ad1 0a3e f208 223e
00000020: edc3 243e 5ab3 3c3e f51f 3d3e 5253 653e
00000030: 91cc 6d3e fd78 873e 88d0 873e bfcd 913e
00000040: f4e1 953e 0e54 9c3e 2f6b a03e 4ed9 a93e
00000050: 1b1b aa3e 7456 c33e 8afd c73e cd4c e83e
0.054186385 0.10522816 0.105277434 0.11340249 0.11406733 0.13514689 0.13556352 0.15823725
0.16090365 0.18427792 0.18469222 0.22395065 0.23222567 0.26459494 0.26526284 0.28477284
0.2927395 0.3053288 0.31331775 0.33173603 0.33223805 0.38151896 0.39060622 0.45371094

calibrator_y9 f4 [24]
00000000: 0000 0000 0000 0000 310c 433d 310c 433d
00000010: 2fba e83d 2fba e83d 3dcf f33d 3dcf f33d
00000020: 28af 213e 28af 213e cdcc 4c3e cdcc 4c3e
00000030: 398e 633e 398e 633e 2549 923e 2549 923e
00000040: 0000 003f 0000 003f 9a99 193f 9a99 193f
00000050: 0000 603f 0000 603f 0000 803f 0000 803f
0.0 0.0 0.04761905 0.04761905 0.11363637 0.11363637 0.11904762 0.11904762
0.15789473 0.15789473 0.2 0.2 0.22222222 0.22222222 0.2857143 0.2857143
0.5 0.5 0.6 0.6 0.875 0.875 1.0 1.0
